app/src/main/ml/mnist.tflite (tflite, 116712 bytes, 6 tensors)

sequential/dense/BiasAdd/ReadVariableOp f4 [10]
0.00047625854 0.14499994 0.030144865 -0.041138396 -0.034462564 0.02145169 0.007302036 0.05430965
-0.09927621 -0.044571586
00000000: 57b2 f939 dd7a 143e 5df2 f63c bc80 28bd
00000010: 9e28 0dbd 74bb af3c eb45 ef3b cc73 5e3d
00000020: 5351 cbbd b290 36bd

sequential/conv2d/BiasAdd/ReadVariableOp f4 [32]
0.073467284 0.009601737 0.050595507 -0.04254028 0.020466672 -0.102559924 -0.023688754 -0.030416623
-0.028539872 -0.035423517 -0.035276577 -0.16786876 -0.12202147 -0.0957807 -0.07091698 0.050648086
-0.04100822 -0.013031187 -0.041548688 0.084585406 -0.02970553 -0.042059626 -0.043652672 0.014454727
0.12882964 -0.022821102 -0.09750056 -0.030231243 -0.033299822 0.02270563 -0.009374405 -0.042637434
00000000: 0476 963d 9b50 1d3c 3c3d 4f3d b73e 2ebd
00000010: b9a9 a73c f00a d2bd eb0e c2bc 482c f9bc
00000020: 73cc e9bc 4018 11bd 2c7e 10bd cae5 2bbe
00000030: 64e6 f9bd ac28 c4bd ec3c 91bd 5e74 4f3d
00000040: 3cf8 27bd c280 55bc f52e 2abd 1d3b ad3d
00000050: 0359 f3bc b746 2cbd 25cd 32bd 85d3 6c3c
00000060: ebeb 033e 52f3 babc 60ae c7bd 83a7 f7bc
00000070: 6565 08bd 2801 ba3c 1b97 19bc 97a4 2ebd

sequential/conv2d_1/BiasAdd/ReadVariableOp f4 [64]
0.024230681 -0.01663906 -0.030977108 -0.049967073 -0.09080567 0.004009504 -0.06868866 -0.007270893
-0.087728985 -0.10254993 -0.05213191 -0.01911351 0.0225183 -0.033369366 0.013107574 -0.031948835
-0.04491229 -0.05390968 -0.037836984 -0.05430668 -0.037823237 -0.058782987 -0.014698499 -0.010188873
-0.05336725 -0.009958026 -0.001537771 -0.06412421 -0.04993211 -0.016840031 -0.033686746 -0.12364743
-0.025763042 -0.059885647 -0.0045779003 -0.0051027136 -0.015919376 0.017746255 -0.06966407 -0.06727353
-0.0028781735 -0.032200217 -0.039288446 -0.022979585 -0.010649005 -0.055452563 0.0032749341 -0.0018157307
0.0070420844 -0.022602977 -0.016909808 0.0028570043 0.004907189 -0.03026018 -0.10627841 -0.05295365
-0.005772529 -0.05416892 -0.022004 0.005735114 -0.10448559 -0.0419295 0.02381618 -0.033407852
00000000: 6c7f c63c a34e 88bc b4c3 fdbc 46aa 4cbd
00000010: 53f8 b9bd 2862 833b a4ac 8cbd ac40 eebb
00000020: 41ab b3bd b305 d2bd 4588 55bd f093 9cbc
00000030: 4c78 b83c 51ae 08bd 26c1 563c c8dc 02bd
00000040: f3f5 37bd 66d0 5cbd f4fa 1abd ae70 5ebd
00000050: 8aec 1abd 6ec6 70bd f9d1 70bc 3bef 26bc
00000060: 9e97 5abd fd26 23bc 088f c9ba 8e53 83bd
00000070: 9d85 4cbd 1bf4 89bc 1dfb 09bd dd3a fdbd
00000080: 040d d3bc a74a 75bd 3602 96bb aa34 a7bb
00000090: 5a69 82bc 9860 913c 09ac 8ebd b4c6 89bd
000000a0: bd9f 3cbb 60e4 03bd ecec 20bd af3f bcbc
000000b0: 2a79 2ebc 3a22 63bd 47a0 563b d0fd edba
000000c0: 49c1 e63b e129 b9bc 7086 8abc 943c 3b3b
000000d0: 7ccc a03b 32e4 f7bc 7fa8 d9bd ede5 58bd
000000e0: 7c27 bdbb 3be0 5dbd bc41 b4bc a0ed bb3b
000000f0: 8afc d5bd 44be 2bbd 261a c33c acd6 08bd

sequential/conv2d/Conv2D f4 [32, 3, 3, 1]
0.13710506 0.14664505 0.28088608 0.3349539 -0.05487148 -0.17375708 0.09887008 -0.23874405
-0.41706046 -0.17660922 -0.2682614 0.1480367 -0.29627988 0.04311678 0.20146608 0.15132196
0.038427822 0.22668429 -0.19089842 -0.34994072 -0.2971151 0.055952292 0.047555376 0.03135492
0.38646486 0.11909493 0.008954398 -0.13592812 -0.05714685 0.08483686 0.03825016 0.19254282
-0.18346621 0.15960473 0.07357378 -0.081163734 0.097579 -0.04404652 0.24525176 0.10407872
-0.039615393 0.13880837 -0.28578985 -0.29748994 0.027440105 0.067208745 0.041108187 -0.08606579
0.060442545 0.03596897 0.017536797 -9.689445e-05 -0.056013864 0.14564109 0.115774125 -0.15658301
0.05243983 0.24540985 0.07409429 -0.08990721 -0.17443739 -0.21425001 0.1330491 0.16214848
0.19336669 0.11454046 0.21869689 0.14122537 -0.10750204 0.08740484 -0.14190812 -0.3554028
-0.05355766 -0.046292655 0.14669532 -0.063224666 0.13177069 0.30294845 -0.3316084 -0.18895513
0.061412457 -0.11910064 -0.20132826 0.0011342665 -0.054672014 0.08617413 0.15088934 -0.020313488
0.15952088 0.17970484 -0.09130776 0.13069871 0.27038324 -0.12887016 -0.05211178 0.20187719
-0.006743455 -0.13417047 -0.04111935 -0.013396864 0.023423765 0.10609518 0.06103672 0.10442248
0.010451775 -0.032442685 0.09294138 -0.014109868 0.07359533 0.056888156 -0.07177273 -0.13036054
-0.06990046 -0.012883146 0.007929937 0.05897471 0.026418826 0.031956982 -0.0053334576 0.029015027
0.18559536 0.039648406 0.077526405 -0.020562274 0.024799014 -0.14205997 -0.08948085 -0.17852902
-0.15983765 0.099915124 0.12796308 0.16745873 0.053164132 0.14271255 0.12114507 0.1139812
0.30722076 0.29214546 -0.1035921 -0.078107126 0.016345792 -0.34624392 -0.3751103 -0.13581385
0.14967254 0.085931286 -0.20723988 -0.024659367 0.10989824 0.042045027 -0.25343344 0.028353125
0.17434244 0.097217284 0.12585694 -0.1274602 -0.14997372 0.15739255 0.2034585 -0.2311202
-0.14479065 0.2208897 0.15969071 0.058997147 -0.031463258 0.1478811 0.104310356 -0.12166818
-0.2152969 -0.038967058 0.048350155 0.2703714 -0.044807833 -0.30524775 0.120043695 -0.5613805
0.049452353 -0.36780173 -0.16051418 0.25147784 0.2368729 -0.104169175 -0.19940512 0.020858094
-0.18349108 -0.25263053 0.31079048 0.20416631 0.1041346 0.3094798 0.24827802 -0.22555
0.0520412 0.039301135 -0.24565695 0.016492682 -0.02276131 0.08653808 -0.16071631 -0.113574065
0.30223227 -0.10583405 0.060795058 0.29723775 0.029332763 0.059301663 -0.13017663 -0.03969599
0.2300384 0.21772385 -0.05027112 0.17683631 0.16310145 -0.30446568 -0.08338057 -0.17620575
-0.31651786 -0.27978456 -0.02327701 0.046624746 -0.21198219 -0.3301761 0.27596387 0.13955066
-0.073640786 0.28232425 0.24440286 0.2182871 0.090725966 -0.13438375 -0.12143648 0.083622456
-0.23266205 -0.21140856 -0.16820398 0.084835194 -0.0073924945 -0.19322112 0.18685156 0.017383894
-0.015101869 0.04106885 0.033229556 -0.21913995 0.057352223 -0.1446147 0.19047944 0.15280537
-0.16702293 0.18726179 0.14248927 -0.08787006 0.046129692 -0.17510886 -0.2974475 -0.0020880806
00000000: 4565 0c3e 1f2a 163e 4dd0 8f3e 147f ab3e
00000010: ebc0 60bd 60ed 31be 667c ca3d 5279 74be
00000020: f388 d5be 0cd9 34be 8f59 89be ef96 173e
00000030: ffb1 97be 399b 303d 204d 4e3e 25f4 1a3e
00000040: 7e66 1d3d ed1f 683e e07a 43be 6e2b b3be
00000050: 781f 98be 3b2e 653d 6dc9 423d 046e 003d
00000060: b9de c53e 0be8 f33d 78b5 123c be30 0bbe
00000070: d112 6abd f3be ad3d 33ac 1c3d f229 453e
00000080: 91de 3bbe 6c6f 233e daad 963d 2c39 a6bd
00000090: 80d7 c73d 206a 34bd 4723 7b3e 3927 d53d
000000a0: c043 22bd c823 0e3e 0c53 92be 9a50 98be
000000b0: 12ca e03c bda4 893d 0f61 283d 4343 b0bd
000000c0: 9a92 773d 3354 133d 54a9 8f3c d033 cbb8
000000d0: cb6e 65bd f022 153e fc1a ed3d 4c57 20be
000000e0: 26cb 563d b84c 7b3e bfbe 973d 4521 b8bd
000000f0: b79f 32be 5b64 5bbe 063e 083e 400a 263e
00000100: eb01 463e 3094 ea3d 14f2 5f3e 629d 103e
00000110: 082a dcbd 4f01 b33d 5d50 11be 5bf7 b5be
00000120: 475f 5bbd 5e9d 3dbd 4c37 163e ef7b 81bd
00000130: e5ee 063e 0f1c 9b3e 94c8 a9be 747d 41be
00000140: a18b 7b3d 09eb f3bd ff28 4ebe abab 943a
00000150: c3ef 5fbd 107c b03d bc82 1a3e 7968 a6bc
00000160: 7159 233e 8c04 383e 90ff babd e2d5 053e
00000170: ac6f 8a3e 8af6 03be 2973 55bd e5b8 4e3e
00000180: 33f8 dcbb fc63 09be c36c 28bd 857e 5bbc
00000190: 32e3 bf3c 6e48 d93d a401 7a3d 74db d53d
000001a0: ec3d 2b3c 9fe2 04bd 0d58 be3d 132d 67bc
000001b0: 26b9 963d 8e03 693d 95fd 92bd 3c7d 05be
000001c0: f927 8fbd d513 53bc 91ec 013c 778f 713d
000001d0: 4b6c d83c 53e5 023d 49c4 aebb ecb0 ed3c
000001e0: b60c 3e3e 5e66 223d 2ac6 9e3d 3772 a8bc
000001f0: 4d27 cb3c 2b78 11be bc41 b7bd 50d0 36be
00000200: 7bac 23be 4da0 cc3d c108 033e 4d7a 2b3e
00000210: a2c2 593d 3d23 123e e81a f83d fa6e e93d
00000220: 0a4c 9d3e 1794 953e 1828 d4bd a1f6 9fbd
00000230: 9ce7 853c e246 b1be 750e c0be c912 0bbe
00000240: c243 193e befc af3d b136 54be 7102 cabc
00000250: 5412 e13d 6837 2c3d 07c2 81be d044 e83c
00000260: d386 323e db19 c73d a4e0 003e ed84 02be
00000270: b692 19be 832b 213e 6d57 503e c6aa 6cbe
00000280: 0044 14be e930 623e f685 233e fea6 713d
00000290: 9edf 00bd 256e 173e aba0 d53d 2b2d f9bd
000002a0: ca76 5cbe ec9b 1fbd d00a 463d 1f6e 8a3e
000002b0: 6b88 37bd 6f49 9cbe 78d9 f53d a2b6 0fbf
000002c0: 8d8e 4a3d 8250 bcbe d45d 24be b4c1 803e
000002d0: cf8e 723e a656 d5bd db30 4cbe 98de aa3c
000002e0: 16e5 3bbe ca58 81be ee1f 9f3e f910 513e
000002f0: 8544 d53d 2374 9e3e 983c 7e3e 94f6 66be
00000300: 2729 553d 3afa 203d 7f8d 7bbe a91b 873c
00000310: ed75 babc e03a b13d d192 24be 8599 e8bd
00000320: 30be 9a3e 86bf d8bd 3d04 793d 8c2f 983e
00000330: 434b f03c 4de6 723d 064d 05be 4398 22bd
00000340: 308f 6b3e 00f3 5e3e 17e9 4dbd 9414 353e
00000350: 1104 273e ede2 9bbe 6fc3 aabd 486f 34be
00000360: a10e a2be ec3f 8fbe 6eaf bebc 97f9 3e3d
00000370: dc11 59be d70c a9be 234b 8d3e 5ee6 0e3e
00000380: fbd0 96bd ce8c 903e be44 7a3e a786 5f3e
00000390: 89ce b93d e59b 09be b0b3 f8bd 4042 ab3d
000003a0: f63e 6ebe 7c7b 58be aa3d 2cbe 13be ad3d
000003b0: bd3c f2bb c2db 45be 0456 3f3e ab68 8e3c
000003c0: d46d 77bc cf37 283d b71b 083d 3966 60be
000003d0: 2aea 6a3d e015 14be 0b0d 433e 0379 1c3e
000003e0: 0f08 2bbe 8ec1 3f3e b5e8 113e 38f5 b3bd
000003f0: 7df2 3c3d bd4f 33be 0a4b 98be 2ed8 08bb

sequential/conv2d_1/Conv2D i1 [64, 3, 3, 32]
11 -36 64 8 -37 5 13 17
-41 -127 -59 -54 -1 -17 -5 -17
12 -20 -11 -40 52 16 -123 -36
12 25 -84 15 44 -54 -20 53
-33 -20 0 -41 -35 -49 -8 -74
-17 -36 -29 -70 -58 -55 -49 -61
-40 -7 -91 6 16 -59 -16 -65
0 -40 -15 -85 -39 -50 3 -41
-82 29 -63 -45 22 -12 2 -107
8 22 -7 -1 -7 -30 13 -35
6 34 -54 39 -49 -87 48 -8
-24 -127 28 -59 -25 16 30 -20
67 -48 91 47 -30 -13 -8 36
-77 -108 -87 -21 -30 9 10 -87
-19 -40 -24 -28 78 14 -124 -78
24 50 -65 46 55 -12 -111 39
-22 35 -24 -57 -7 -37 -20 -70
26 -4 32 -51 -49 -51 -54 -72
-21 -7 -41 34 -13 -46 23 -27
-19 -33 -50 -60 -26 -43 -16 -42
-57 52 -63 -54 16 -7 22 -79
59 2 36 -8 21 -16 28 20
-9 44 -19 -5 -84 -119 40 20
-32 -70 41 -47 -37 32 36 -15
93 -50 9 -11 -3 1 70 55
-90 -95 -89 -27 -40 13 -9 -40
-10 -106 27 30 27 57 -87 -122
-5 63 -69 23 1 -86 -85 29
5 -23 -67 -89 21 -33 6 -64
12 -41 3 -58 -45 -68 -62 -18
-46 -17 -46 41 -56 -44 -11 -9
7 -39 -9 -62 -60 -43 2 -67
00000000: 0bdc 4008 db05 0d11 d781 c5ca ffef fbef
00000010: 0cec f5d8 3410 85dc 0c19 ac0f 2cca ec35
00000020: dfec 00d7 ddcf f8b6 efdc e3ba c6c9 cfc3
00000030: d8f9 a506 10c5 f0bf 00d8 f1ab d9ce 03d7
00000040: ae1d c1d3 16f4 0295 0816 f9ff f9e2 0ddd
00000050: 0622 ca27 cfa9 30f8 e881 1cc5 e710 1eec
00000060: 43d0 5b2f e2f3 f824 b394 a9eb e209 0aa9
00000070: edd8 e8e4 4e0e 84b2 1832 bf2e 37f4 9127
00000080: ea23 e8c7 f9db ecba 1afc 20cd cfcd cab8
00000090: ebf9 d722 f3d2 17e5 eddf cec4 e6d5 f0d6
000000a0: c734 c1ca 10f9 16b1 3b02 24f8 15f0 1c14
000000b0: f72c edfb ac89 2814 e0ba 29d1 db20 24f1
000000c0: 5dce 09f5 fd01 4637 a6a1 a7e5 d80d f7d8
000000d0: f696 1b1e 1b39 a986 fb3f bb17 01aa ab1d
000000e0: 05e9 bda7 15df 06c0 0cd7 03c6 d3bc c2ee
000000f0: d2ef d229 c8d4 f5f7 07d9 f7c2 c4d5 02bd

sequential/dense/MatMul i1 [10, 9216] scale=0.004859712 zero_point=0
-0.1214928 0.08261511 0.004859712 0.004859712 0.019438848 -0.014579136 0.019438848 -0.08261511
0.0 -0.058316544 0.009719424 0.0 0.06803597 0.014579136 0.009719424 -0.019438848
0.11177337 0.072895676 0.009719424 0.004859712 -0.029158272 0.019438848 0.0 -0.038877696
-0.004859712 -0.04859712 0.0 0.038877696 -0.009719424 0.014579136 -0.034017984 0.009719424
0.014579136 0.019438848 -0.029158272 0.004859712 -0.009719424 -0.072895676 -0.019438848 0.004859712
-0.034017984 -0.09719424 -0.06317626 0.014579136 0.038877696 -0.029158272 0.02429856 -0.06317626
-0.07775539 0.038877696 -0.04859712 -0.02429856 -0.05345683 -0.029158272 -0.04859712 -0.014579136
-0.02429856 -0.034017984 -0.029158272 0.11177337 0.019438848 -0.004859712 -0.13607194 -0.014579136
-0.11177337 -0.014579136 -0.029158272 -0.029158272 -0.043737408 -0.04859712 0.0 -0.019438848
-0.02429856 -0.034017984 -0.08261511 0.019438848 0.058316544 0.009719424 0.034017984 -0.06317626
0.10691366 -0.05345683 0.014579136 0.0 -0.019438848 -0.038877696 -0.22840646 0.004859712
-0.029158272 -0.02429856 -0.014579136 0.009719424 -0.04859712 -0.038877696 -0.034017984 -0.014579136
0.029158272 -0.04859712 0.06317626 0.05345683 -0.092334524 0.009719424 -0.05345683 -0.02429856
0.019438848 -0.05345683 -0.02429856 -0.14579135 -0.043737408 -0.009719424 -0.058316544 -0.10691366
-0.07775539 0.009719424 -0.087474816 0.019438848 0.0 -0.04859712 -0.05345683 -0.004859712
-0.072895676 -0.043737408 -0.038877696 -0.009719424 0.02429856 -0.05345683 -0.038877696 -0.043737408
0.014579136 -0.004859712 -0.014579136 -0.038877696 -0.009719424 -0.05345683 -0.029158272 -0.09719424
0.014579136 0.072895676 -0.15551078 -0.06317626 0.034017984 -0.092334524 -0.02429856 -0.14579135
0.10691366 -0.034017984 -0.009719424 -0.004859712 -0.029158272 -0.02429856 -0.14579135 -0.038877696
0.014579136 -0.06317626 -0.014579136 -0.009719424 -0.05345683 -0.014579136 -0.009719424 -0.038877696
-0.019438848 -0.004859712 0.019438848 -0.004859712 -0.034017984 -0.1214928 -0.072895676 -0.038877696
0.009719424 -0.043737408 -0.07775539 -0.22354674 -0.11663309 -0.004859712 -0.06803597 -0.004859712
-0.019438848 0.02429856 -0.034017984 -0.02429856 0.038877696 -0.019438848 -0.009719424 -0.058316544
0.014579136 -0.05345683 -0.06803597 -0.009719424 0.0 -0.058316544 0.009719424 -0.087474816
-0.20896761 -0.05345683 -0.043737408 -0.004859712 0.009719424 -0.019438848 0.02429856 -0.11177337
0.08261511 -0.087474816 -0.15551078 -0.029158272 0.09719424 0.02429856 -0.092334524 -0.06317626
0.087474816 -0.004859712 -0.04859712 0.04859712 -0.029158272 -0.043737408 -0.038877696 -0.034017984
-0.014579136 -0.004859712 -0.034017984 -0.034017984 -0.038877696 0.004859712 -0.029158272 -0.034017984
-0.034017984 -0.04859712 0.06317626 -0.019438848 0.004859712 -0.04859712 -0.102053955 -0.029158272
0.04859712 -0.092334524 -0.04859712 -0.13121222 -0.038877696 0.034017984 -0.05345683 0.038877696
-0.092334524 -0.009719424 -0.12635252 -0.13121222 -0.07775539 -0.043737408 -0.019438848 -0.029158272
-0.02429856 0.11177337 0.038877696 0.043737408 -0.043737408 -0.05345683 -0.058316544 -0.043737408
00000000: e711 0101 04fd 04ef 00f4 0200 0e03 02fc
00000010: 170f 0201 fa04 00f8 fff6 0008 fe03 f902
00000020: 0304 fa01 fef1 fc01 f9ec f303 08fa 05f3
00000030: f008 f6fb f5fa f6fd fbf9 fa17 04ff e4fd
00000040: e9fd fafa f7f6 00fc fbf9 ef04 0c02 07f3
00000050: 16f5 0300 fcf8 d101 fafb fd02 f6f8 f9fd
00000060: 06f6 0d0b ed02 f5fb 04f5 fbe2 f7fe f4ea
00000070: f002 ee04 00f6 f5ff f1f7 f8fe 05f5 f8f7
00000080: 03ff fdf8 fef5 faec 030f e0f3 07ed fbe2
00000090: 16f9 feff fafb e2f8 03f3 fdfe f5fd fef8
000000a0: fcff 04ff f9e7 f1f8 02f7 f0d2 e8ff f2ff
000000b0: fc05 f9fb 08fc fef4 03f5 f2fe 00f4 02ee
000000c0: d5f5 f7ff 02fc 05e9 11ee e0fa 1405 edf3
000000d0: 12ff f60a faf7 f8f9 fdff f9f9 f801 faf9
000000e0: f9f6 0dfc 01f6 ebfa 0aed f6e5 f807 f508
000000f0: edfe e6e5 f0f7 fcfa fb17 0809 f7f5 f4f7
